…
2025-11-11 09:07:42,837 - root - INFO - Overriding total number of samples to: 128
2025-11-11 09:07:42,837 - root - INFO - Number of samples per year: 1460
2025-11-11 09:07:42,837 - root - INFO - Found data at path /data/valid. Number of examples: 128. Image Shape: 360 x 720 x 20
2025-11-11 09:07:42,984 - root - INFO - Getting file stats from /data/valid/2016.h5
2025-11-11 09:07:42,984 - root - INFO - Overriding total number of samples to: 128
2025-11-11 09:08:10,582 - root - INFO - rank 0, data loader initialized
2025-11-11 09:08:11,999 - root - INFO - OptimizedModule(
  (_orig_mod): VisionTransformer(
    (patch_embed): PatchEmbed(
      (proj): Conv2d(20, 384, kernel_size=(8, 8), stride=(8, 8))
    )
    (pos_drop): Dropout(p=0.0, inplace=False)
    (blocks): ModuleList(
      (0-11): 12 x Block(
        (drop_path): Identity()
        (norm1): LayerNorm((384,), eps=1e-06, elementwise_affine=True)
        (norm2): LayerNorm((384,), eps=1e-06, elementwise_affine=True)
        (attn): Attention(
          (q): Linear(in_features=384, out_features=384, bias=True)
          (k): Linear(in_features=384, out_features=384, bias=True)
          (v): Linear(in_features=384, out_features=384, bias=True)
          (attn_drop): Dropout(p=0.0, inplace=False)
          (proj): Linear(in_features=384, out_features=384, bias=True)
          (proj_drop): Dropout(p=0.0, inplace=False)
        )
        (mlp): MLP(
          (fc1): Linear(in_features=384, out_features=1536, bias=True)
          (act): GELU(approximate='none')
          (fc2): Linear(in_features=1536, out_features=384, bias=True)
          (drop): Dropout(p=0.0, inplace=False)
        )
      )
    )
    (norm): LayerNorm((384,), eps=1e-06, elementwise_affine=True)
    (head): Linear(in_features=384, out_features=1280, bias=False)
  )
)
2025-11-11 09:08:12,000 - root - INFO - Starting Training Loop...
/global/u2/s/shas1693/codes/sc25-dl-tutorial/train.py:176: UserWarning: Converting a tensor with requires_grad=True to a scalar may lead to unexpected behavior.
Consider using tensor.detach() first. (Triggered internally at /opt/pytorch/pytorch/aten/src/ATen/native/Scalar.cpp:22.)
…
